saved_models/client_1_model.pth (torch, 9550 bytes, 6 tensors)

fc1.weight f4 [50, 11]
000000 18 bd 63 be da 66 d6 be 76 49 ec 3d 43 22 80 3c
       -0.22240102 -0.41875345 0.11537449 0.015641337
000010 27 6c cd 3e e9 a0 44 be c2 04 2b 3f 66 2d ac 3d
       0.40121576 -0.19202007 0.66804135 0.084070966
000020 94 9c 49 be b8 97 25 bf 07 98 40 bd 24 6d 38 bd
       -0.19688636 -0.6468463 -0.047019985 -0.04502596
000030 8f 4f ea 3d dd d1 4e 3e 85 58 10 3e e7 10 64 bf
       0.11440956 0.20197244 0.14096268 -0.8908829
000040 1e ba d1 be 60 af 09 3e b5 40 0d 3f 78 cf 42 3e
       -0.4096231 0.13445807 0.5517686 0.19024456
000050 f5 d0 91 be 26 6a 5c bd fe 72 5f be 09 e1 bc be
       -0.28479734 -0.05381217 -0.2182121 -0.36890438
000060 3e 3d e7 3c 9c ac 5e 3e 4e f5 3e be b0 d5 9b 3e
       0.028227445 0.21745533 -0.18648264 0.30436468
000070 53 45 99 be 8e 10 a0 3e da 51 87 3d cf 76 80 3d
       -0.29935703 0.3126263 0.06607409 0.06272661
000080 df b5 87 3e 08 89 ad be e0 ad 00 3e 96 ec 32 3f
       0.26505944 -0.3389361 0.12566328 0.6989225
000090 96 64 a0 be 26 59 a0 be 3d 91 8a be e3 ee 3e 3e
       -0.3132674 -0.31318015 -0.27063933 0.18645816
0000a0 36 ea 06 3e c3 4e 99 be 9e 95 00 be b5 3c b8 3e
       0.13175282 -0.29942903 -0.12557074 0.35983816
0000b0 7e 14 47 3e 33 c2 22 bd f8 3d 0d be 49 36 de 3d
       0.19441411 -0.039735984 -0.1379317 0.10850198
0000c0 0c 32 d2 3d fe 43 b6 3d ff 0d c4 be 82 a7 f7 be
       0.10263452 0.08899687 -0.38291928 -0.48369986
0000d0 d8 5b cd be 84 59 d4 be dd 15 47 be ba b5 f6 3c
       -0.40109134 -0.41474545 -0.19441934 0.03011595
0000e0 0c f2 07 bf c0 fe 83 3c f8 a3 b3 be de 44 d3 bd
       -0.5310371 0.016112685 -0.35086036 -0.1031587
0000f0 bf 3b a7 be 88 a5 a0 3e 55 12 f8 be 76 dd a6 be
       -0.3266277 0.3137629 -0.48451486 -0.32590836
000100 24 9a e1 be 99 65 3c 3e 82 4c c8 3e 0f 4e 96 3e
       -0.44062912 0.18398131 0.3912087 0.2935643
000110 5a 13 b3 3e 33 19 9e 3e b8 9a 09 be 21 ec 80 3e
       0.34975702 0.308786 -0.13437927 0.25180152
000120 2c 7f 2a bd ff 24 4e bb 9d f4 cf bd f2 ec 10 3d
       -0.041625187 -0.0031455157 -0.10154078 0.03538222
000130 07 2b 96 3e e4 9d 3e be 81 81 ff bd 18 db 94 3e
       0.29329702 -0.18614918 -0.12475873 0.29073405
000140 67 21 60 3e ca 12 e7 3e 79 6d d0 bc 5d 75 73 be
       0.21887742 0.45131522 -0.025442826 -0.2377524
000150 8c 41 50 be 81 74 a6 bd 86 f7 b9 3d 43 0b 80 3d
       -0.20337504 -0.0812769 0.090804145 0.06252148
000160 47 d3 9d 3d 61 56 49 3e 64 d5 0e bf 8c 3b 1d 3e
       0.077063136 0.19661857 -0.5579436 0.15354747
000170 94 1f 97 be e4 6e 09 3f 13 df 65 be ff 2f a0 3e
       -0.2951628 0.5368483 -0.22448377 0.31286618
000180 5c 28 ae 3e eb ba 10 3d db 43 c4 be 6b 29 17 3d
       0.34015167 0.03533451 -0.3833302 0.036904734
000190 4e f8 b0 3d 23 91 49 3d 03 7b 5c be b6 49 dc bd
       0.0864111 0.04921068 -0.215313 -0.10756247
0001a0 e1 96 43 be 34 3a 23 be b5 8f 5e bd ba 62 b6 be
       -0.19100524 -0.15940171 -0.05433627 -0.35622197
0001b0 72 62 54 3c 0b 53 1d be 10 c3 51 3d 53 a2 4a be
       0.012962924 -0.1536371 0.051211417 -0.19788484
0001c0 4d b2 a4 3d 94 b8 00 3d d5 ab ec bd 63 ac d1 be
       0.08041821 0.031426027 -0.11556212 -0.40951833
0001d0 2a 68 bf 3e 00 f2 ec 3e 55 2c 2d 3e 47 9c c1 3e
       0.37384158 0.4627838 0.16911443 0.37814543
0001e0 36 61 6b be ea bb cd be 8b db c0 bd 64 df 13 be
       -0.22986302 -0.4018243 -0.094168745 -0.14440686
0001f0 15 09 de bd 82 5f 1f bd 06 f4 09 3e cd cc bc 3d
       -0.10841576 -0.038909443 0.13471994 0.0921875
000200 0c 66 9c be a6 f4 8b 3d 1c 72 ac bd 66 e0 8b be
       -0.30546606 0.06833772 -0.08420202 -0.2731964
000210 74 66 9a 3e e9 dc 9f 3c ce 53 22 be 3d c1 a4 3e
       0.3015629 0.019514518 -0.15852281 0.3217868
000220 f5 8b aa be 73 36 3c be 98 e6 09 be a8 07 a9 3d
       -0.33309904 -0.18380146 -0.13466871 0.082534134
000230 a1 03 22 be 6b bb 2c be e3 48 74 be 05 b8 ee 3d
       -0.15821697 -0.1686837 -0.23855929 0.11656193
000240 f7 42 83 be 79 5c 73 3e b5 d6 d0 bc b6 c3 83 bd
       -0.25637028 0.23765744 -0.025493005 -0.06433813
000250 b3 49 bd 3b 53 14 a5 be bd 8f 1d 3f 92 49 04 bd
       0.005776608 -0.3224207 0.6154745 -0.032296725
000260 78 24 e8 bd b7 8a 18 3e b4 39 68 be 9e 64 c1 be
       -0.11335081 0.14896666 -0.22678262 -0.37772077
000270 0d 00 1c be 71 e4 86 3d fa bf ba bd 6b a0 b9 3c
       -0.15234394 0.065865405 -0.09118648 0.022659501
000280 1a cb 7a 3d ef d9 c2 3d cf 15 67 3e 7f b2 7e 3e
       0.06122885 0.09514224 0.22566913 0.24872778
000290 11 32 48 3d c0 56 d6 3e c2 f7 e5 be b0 fa cb be
       0.048875872 0.4186306 -0.44915587 -0.39839697
0002a0 d9 7c d1 be 29 f5 4b 3d 6e d5 a2 3e 3c e7 58 bd
       -0.40915564 0.04979435 0.3180346 -0.052954897
0002b0 dc dc 2e 3e c2 73 cd 3c 36 a0 ab bb f8 65 34 3e
       0.17076439 0.025079612 -0.0052376045 0.17617023
0002c0 6c 9c 96 be 6b aa 34 3e 78 4f d7 bd 3b b9 a5 be
       -0.29416215 0.17643134 -0.10513204 -0.32367882
0002d0 a2 04 4a be de e3 9b be ed ff 71 be 4f ba 21 bd
       -0.1972833 -0.30447286 -0.23632784 -0.03948432
0002e0 eb 58 a0 be 01 4f 21 3d 27 f1 10 bd 81 61 76 be
       -0.3131784 0.039381985 -0.03538623 -0.24060632
0002f0 0e b8 e1 be 96 3d b9 be 73 d6 84 3d cf 98 42 be
       -0.44085735 -0.361798 0.064862154 -0.19003604
000300 69 25 af be 2d 62 40 be 4e 2f 77 3e da 72 a5 3e
       -0.3420823 -0.18787451 0.24139139 0.32314187
000310 ff 19 da be f1 d4 7d be c7 09 48 be 5b 35 9a be
       -0.42597958 -0.24788262 -0.1953498 -0.30118832
000320 5c d5 31 be 61 c9 89 3e 93 74 d6 bd 36 4d 25 3d
       -0.17366546 0.26911452 -0.104714535 0.040356837
000330 7a 4b 04 be bb 7a 81 3b 64 e2 a4 be d8 2c 9e be
       -0.12919417 0.003951398 -0.32203972 -0.30893588
000340 c2 e0 06 3e f2 ff 97 be 79 1e ff bd a3 ea 35 be
       0.13171676 -0.29687458 -0.12456984 -0.17765288
000350 52 c3 ce be 03 a2 83 be bd e3 60 be f3 e0 47 3e
       -0.40383393 -0.25709543 -0.21961875 0.19519405
000360 bf 54 94 3e c9 16 1f 3e 29 63 af bb 06 52 ae 3e
       0.28970906 0.15536036 -0.005352397 0.34046954
000370 ee 52 ce 3d e6 69 c6 be 9f 5d 22 3e 05 47 cf be
       0.10074411 -0.3875267 0.15856026 -0.4048387
000380 d9 be 0b be a2 67 3f 3d f6 a8 a6 be 04 33 30 be
       -0.13647021 0.04672969 -0.32550782 -0.17206961
000390 e9 36 ab be 15 42 51 bd c2 7c 1e be 1c cf 0f be
       -0.3344033 -0.05108841 -0.15477279 -0.1404385
0003a0 49 67 aa be 66 05 65 bd b6 40 0f bd 51 e5 0f 3d
       -0.33281925 -0.05591335 -0.034973823 0.035130803
0003b0 d4 f2 da 3e 50 d3 b9 3d 55 7b a9 be 60 3c b3 be
       0.42763388 0.09073508 -0.33101907 -0.35007
0003c0 a9 92 f8 be 95 9b 8b 3d da c1 37 bf a3 8f b2 bd
       -0.48549393 0.06816784 -0.7178017 -0.08718803
0003d0 75 8e 86 3e 59 48 65 be 86 22 ba 3e ff 1e 33 bd
       0.2628056 -0.2239088 0.36354464 -0.043730732
0003e0 e1 ec c7 3e 9d a7 e6 3e e6 76 63 be 8a 58 d0 be
       0.39047912 0.45049754 -0.22213325 -0.4069255
0003f0 5b 7d e0 be df 68 6d be ec 05 18 bf b7 bc ef 3c
       -0.4384564 -0.23184536 -0.59384036 0.029264791

fc1.bias f4 [50]
000000 93 87 05 3f 40 bc e8 3e 81 b6 11 be b3 6d d8 bb
       0.52159995 0.45456123 -0.14229776 -0.006604874
000010 92 a0 87 be 0d 80 90 3e 51 31 44 3b b6 ee 99 bc
       -0.26489693 0.28222695 0.0029936621 -0.018790584
000020 e8 6e 2c 3e eb 57 16 3f e0 9c f8 bc 86 27 ae 3e
       0.16839182 0.587279 -0.030348241 0.3401453
000030 f4 44 b7 be d5 20 c2 3d 5a ab 4f 3e 39 b4 e9 bd
       -0.35794795 0.094789185 0.20280209 -0.11411328
000040 0a 42 1e 3e 53 e2 06 be 33 b4 cc bd d9 69 c7 3e
       0.1545488 -0.13172273 -0.09995308 0.38947943
000050 11 36 96 3d 58 37 d4 3e 92 db c2 3e 95 f1 22 3d
       0.07334531 0.41448474 0.38058144 0.03978117
000060 c3 f6 32 3e f1 aa b2 be 92 4a e1 3e 31 f0 37 be
       0.17476945 -0.34896043 0.44002205 -0.1796272
000070 c3 02 d1 bc 97 ac a8 3e cf 0b 6d be 3e 78 7c 3e
       -0.025514012 0.32944176 -0.23149036 0.24655244
000080 85 95 f0 3d b4 aa 6b be 0e 4b 4f 3d 8b ac e9 be
       0.117472686 -0.23014337 0.050608687 -0.45639452
000090 ec f4 91 be bb 39 b7 be 01 89 8d be 87 49 94 3e
       -0.28507173 -0.35786232 -0.27643588 0.28962347
0000a0 ec 07 50 be 45 ba 3f 3e af ef f3 3e c3 0b a4 3d
       -0.20315522 0.187234 0.47643802 0.08010056
0000b0 a5 e1 20 3b e2 f7 d3 3d 7e f9 05 bf d6 9f 91 bd
       0.0024548557 0.10350014 -0.5233382 -0.071105644
0000c0 e5 d6 0f bf ed ec b7 be
       -0.5618728 -0.35922948

fc2.weight f4 [20, 50]
000000 34 01 37 be 8a f7 f0 bd c5 cd d1 bd 72 06 28 be
       -0.17871553 -0.11765964 -0.102443255 -0.16408709
000010 c7 e2 f7 3c ca ee 3d 3b e8 de a6 3e b2 89 9f bd
       0.030259503 0.002898144 0.3259194 -0.07789935
000020 79 1d 79 be 34 d0 de bd 6f a4 ff bd 7b 29 44 bd
       -0.24327649 -0.10879555 -0.12482535 -0.04789112
000030 5d 59 e7 bd 2e b1 b1 3d eb ad 69 bc 3d 8e d7 3d
       -0.112963416 0.086763725 -0.014262657 0.10525177
000040 1a 34 25 3e 18 d0 80 bd ff 31 8d 3d b1 a4 2a be
       0.16133156 -0.06289691 0.068943016 -0.16664387
000050 0a 36 aa bd 59 de ab 3d 95 b6 0e be 9d 50 09 be
       -0.083110884 0.08392019 -0.13936837 -0.13409658
000060 5e 88 b6 bd cd 0f 68 3e b4 10 1a 3d f2 18 66 3e
       -0.08912729 0.22662278 0.037613586 0.22470453
000070 52 d0 45 3e 8a db a4 3d 46 46 69 3d 7e d8 02 be
       0.19317749 0.08049686 0.056951784 -0.12777898
000080 09 53 1e bc 20 46 dd 3c 87 9b 2e 3d e3 d3 10 3e
       -0.009663352 0.027010977 0.04262879 0.14143328
000090 8b 1d d7 bb be 33 49 3d f4 c2 1c 3c 90 00 a0 3c
       -0.006564801 0.04912161 0.009567965 0.019531518
0000a0 46 eb 77 3e ec 10 da bd 26 00 60 be 65 3d 8d 3e
       0.24210843 -0.10647759 -0.21875057 0.27585903
0000b0 80 ce e8 3d f5 c3 db 3d 8d 2a 83 3d aa 0a 0c be
       0.11367512 0.10730735 0.064046 -0.13675943
0000c0 89 d5 37 3d 87 09 e0 3c 90 5a af 3d 42 08 a7 bd
       0.044881377 0.027348293 0.08562195 -0.08155872
0000d0 82 5f 27 be 48 b6 75 bd 50 44 14 3d 55 48 a0 3d
       -0.16345027 -0.05998829 0.03619796 0.07826296
0000e0 b4 47 61 3d ca 42 88 3b f3 0a c5 bc 69 a2 21 3e
       0.055000022 0.0041583525 -0.024053073 0.15784611
0000f0 ba fe 15 be 94 36 e0 bd 1a ad fa bd 70 a0 35 bd
       -0.14647952 -0.1094791 -0.12240048 -0.04434246
000100 8b df 4d be 28 8d 3e 3e ff 9d 94 3d 76 d0 f0 bd
       -0.20104806 0.18608534 0.07256698 -0.11758511
000110 8f fd 72 3c cd 46 cd 3d 1a 5f fd bc 8c b4 0a bd
       0.014830961 0.1002327 -0.030929137 -0.03386359
000120 7b ca 5d bc 44 bf af bd 1c ce cb bd 92 ba 0e bd
       -0.013537045 -0.08581403 -0.099514216 -0.034845896
000130 17 77 e4 bd 75 c2 1a be 57 6c b0 3d a9 c3 6d bd
       -0.11155527 -0.15113242 0.08614414 -0.058047924
000140 3a 33 b1 bd 8e 55 c7 bd 4d 95 4e 3e af 13 8b bd
       -0.08652349 -0.09733115 0.20174141 -0.06790864
000150 20 a4 b1 bd c6 5c df bd f8 97 38 be 17 2d a8 bc
       -0.086738825 -0.10906367 -0.18026721 -0.020529313
000160 9c 8e 0a be 50 59 6d 3e fe d1 02 be 1b 35 e9 bd
       -0.13530964 0.23178601 -0.12775418 -0.11387082
000170 8b 4e 67 3d 76 7d f8 bd 6e 8c a5 3d ee 13 82 3d
       0.05647139 -0.12133305 0.080834255 0.063514575
000180 b8 e5 04 bd 8f 96 50 3e 51 ce 5c 3d 71 96 0f be
       -0.03244564 0.20369934 0.053907696 -0.14022233
000190 e8 b0 48 bc 29 d3 0a 3e 12 0e 1c be 03 ef e0 3d
       -0.012249209 0.13557114 -0.15239742 0.10983088
0001a0 10 b3 9e 3d c4 e5 9c 3d 55 25 fd bd af d0 f1 3d
       0.07748997 0.07661012 -0.12360636 0.11807381
0001b0 cb 79 bf 3d 93 60 66 3d ea fe 7c bc 3b f0 7f 3d
       0.09349402 0.056244444 -0.015441636 0.06248496
0001c0 4c 9c 15 3e 28 4f 90 bd cf e9 3c 3d 5d 30 28 bd
       0.14610404 -0.07046348 0.046121415 -0.041061748
0001d0 3c 75 4a 3e ed ca e9 bd ec 6c b2 3d c8 8d 01 bd
       0.19771284 -0.11415658 0.087121814 -0.031629354
0001e0 38 00 a9 bd dc eb 6c be cd 8e 51 3c cf 1c 93 bd
       -0.08251995 -0.23136848 0.012790394 -0.07183229
0001f0 c8 76 91 bd 28 fd 9a 3d c9 df e4 39 9f f7 8a 3e
       -0.07102734 0.07567817 0.00043654282 0.27142045
000200 b3 0f 83 bd db 46 44 be f7 13 10 3e 63 04 12 3e
       -0.06399479 -0.19167654 0.14070116 0.14259486
000210 d0 b4 94 3d 04 29 19 be 8b d8 51 3e 20 28 2d 3e
       0.0726105 -0.14957052 0.20492761 0.16909838
000220 e0 86 14 3e 3c ff 1a 3e 9e bf 28 3e 23 80 0d 3e
       0.14504576 0.15136427 0.16479346 0.13818412
000230 40 f7 f2 bd 53 6d c5 3d a2 96 ef 3d 19 e7 a0 3d
       -0.118635654 0.096399926 0.11698653 0.078565784
000240 f9 bd cf 3d 5f eb 0d be 20 1f 99 3d 5e 46 06 bd
       0.10143656 -0.13859318 0.0747664 -0.03278195
000250 b9 f5 69 3d d3 13 38 3e 85 7c 66 bc 6e c1 a4 be
       0.057119105 0.17976312 -0.014067774 -0.32178825
000260 9a 28 3b 3d b6 5b da 3d fe 3a 30 3e af 7a ed 3d
       0.045693018 0.10662024 0.17210004 0.11595666
000270 04 0d b7 3d 30 12 36 3e 30 16 c3 3d 50 0d d5 3d
       0.089380294 0.17780375 0.09525716 0.1040293
000280 41 bd 39 3d 84 96 43 bd c5 b4 cd bd 34 4b d6 bd
       0.045346502 -0.047750965 -0.10044245 -0.104635626
000290 a3 64 41 3c 2f e1 86 3d db 67 b1 bd aa 7e 84 bd
       0.011803779 0.06585919 -0.08662387 -0.06469472
0002a0 20 58 c6 3d 5d 51 3c 3d 75 55 02 3e 19 78 3e 3e
       0.09684777 0.04597603 0.12727912 0.18600501
0002b0 19 ec 3a be e3 67 e8 bd 53 aa 49 bb b8 2b 04 3d
       -0.18254127 -0.1134794 -0.0030771687 0.032268256
0002c0 2e b0 5c 3d 2d 57 41 3c fc 93 91 3d d1 60 39 bd
       0.053878956 0.0118005695 0.07108304 -0.045258347
0002d0 cf b9 df 3c 92 ed 1e 3e 2f 06 4e be fe 11 f1 bd
       0.02731028 0.15520313 -0.20119546 -0.1177101
0002e0 93 31 02 3d 2d b9 3f 3e af 12 33 3d e7 c9 87 bc
       0.03178556 0.18722983 0.04371899 -0.016575767
0002f0 11 b6 21 bd 46 88 09 bd c4 0d f2 3c c9 04 10 be
       -0.039480273 -0.033577226 0.02954758 -0.14064325
000300 58 17 ca 3c e4 e6 dd 3d 56 03 ec bd 39 af 08 bd
       0.024669334 0.108350545 -0.11524074 -0.03337023
000310 05 30 82 3d 57 7b 76 bd c1 a8 f6 3d 8c e3 b8 3d
       0.06356815 -0.06017622 0.12043906 0.09027776
000320 42 49 42 3e 40 66 7c 3e 71 33 1d be 7c 5c ee be
       0.18973258 0.2464838 -0.15351655 -0.46554935
000330 7c 2b 36 3d 60 3c c6 3e bb 8c b9 3d 99 36 e5 bd
       0.044475064 0.38717937 0.09060045 -0.11192054
000340 ed 1f b4 be 7e 92 1b 3e ea 1a 20 bd 9a c8 3d 3c
       -0.35180607 0.15192601 -0.039088167 0.011583472
000350 31 cc 7f be 18 63 82 be 1b 31 cf bd 11 2b c7 3d
       -0.24980237 -0.25466228 -0.10116788 0.09725011
000360 4c a6 a4 3e ea 84 8e 3e f4 6c 19 be bc c9 2f 3c
       0.32158124 0.2783578 -0.14982969 0.01072925
000370 af 45 47 be d1 ba 12 3e 52 2a dd 3e 75 d6 f7 3e
       -0.19460176 0.14329077 0.4319635 0.48405805
000380 bb bf 53 3e e4 c6 02 3e 06 f0 85 3e 30 a7 4d 3d
       0.20678608 0.12771183 0.26159686 0.05020827
000390 e1 4c 8b 3d 88 4e e9 bd b1 25 99 be e0 ae f1 3e
       0.06801773 -0.11391932 -0.2991157 0.47203732
0003a0 27 0e ca 3d 31 dc 10 be 9d 96 33 3d b9 73 65 3e
       0.098659806 -0.14146496 0.043844808 0.22407426
0003b0 61 54 7b be cb 94 9f bd 8c 62 82 be 90 54 3e 3d
       -0.24543907 -0.07792052 -0.2546581 0.046467364
0003c0 68 3a a9 3e f8 02 4c 3e 90 7f 7d 3d ae 20 2e 3d
       0.33052373 0.19923007 0.06188923 0.042511635
0003d0 9e 34 d6 3d f2 c4 b7 be 43 6c 82 be 4f 54 46 3e
       0.10459255 -0.35892445 -0.25473222 0.19368099
0003e0 6f 11 eb 3e a5 60 93 3d 0b a1 f5 3d 0e cb 54 3e
       0.45911738 0.07196168 0.11993607 0.20780584
0003f0 03 ab 87 3d b6 c8 a9 be 3e 22 c9 bb ac f9 bf 3e
       0.06624415 -0.33160943 -0.006138115 0.37495172

fc2.bias f4 [20]
000000 d9 f8 ad 3d c4 00 54 b9 ac 6a 79 bd 67 fe df 3c
       0.084947295 -0.0002021818 -0.060892746 0.027342988
000010 64 ad 4a 3e 64 84 a6 3e df c2 34 be cc 65 9e 3e
       0.19792706 0.3252288 -0.17652462 0.3093704
000020 dc f8 b4 bd e4 50 28 3e 1c b7 95 3e 68 80 1c 3e
       -0.08836529 0.16437107 0.29241264 0.15283358
000030 03 1e 0c 3f 45 30 05 3f 3b 4c 9e 3e 80 b5 07 bd
       0.54733294 0.5202678 0.30917534 -0.033132076
000040 ed 29 29 3e b2 76 a1 3e 20 c9 08 be db 7b ef 3e
       0.165199 0.3153587 -0.13357973 0.46774182

fc3.weight f4 [6, 20]
000000 70 78 e0 3e 3d 67 2a be c2 73 d6 3e c3 6a 24 be
       0.43841887 -0.16640945 0.4188519 -0.16056351
000010 ad 87 6e 3e 40 23 de 3e 50 b6 8d 3e 82 1e 04 bf
       0.23293944 0.4338627 0.27678156 -0.5160905
000020 85 a1 ff bc 5e c7 79 3e 12 aa 44 be 1c fb 79 be
       -0.031204948 0.24392459 -0.19205502 -0.24412197
000030 36 9d 0c bf c7 37 0a bf bf 8e 67 be 19 c6 4d be
       -0.54927385 -0.5399136 -0.22613047 -0.200951
000040 75 9c ac 3d af ad 22 bf 13 28 bd bd 73 a6 03 bf
       0.08428279 -0.6354627 -0.09236159 -0.51425856
000050 dd 9c c2 3d 23 ad 5b 3e d0 cc 9f 3e d0 72 37 3d
       0.095025755 0.21452765 0.31210947 0.044787228
000060 e4 08 4d 3f 3a 38 9c 3e b6 5e 66 be ef 21 eb be
       0.8009169 0.30511647 -0.22497067 -0.45924327
000070 6d ad a5 3e 59 e1 5b 3e b8 dd 72 bf ac 29 3f 3d
       0.32358876 0.21472682 -0.94869566 0.0466706
000080 58 5e 5b 3e 3a de 9b 3e e0 33 25 bf 7e 1a 3f bd
       0.21422708 0.30442983 -0.6453228 -0.046656124
000090 b1 de 47 bf a2 13 d1 be 4d 92 cc bc 10 61 9c be
       -0.78074175 -0.4083529 -0.024972105 -0.30542803
0000a0 c0 86 88 3e cb 27 c0 be 40 1b 11 be d4 a3 ba be
       0.26665306 -0.3753036 -0.14170551 -0.36453116
0000b0 4e d1 4c 3f 34 be 6d 3f 8d 21 08 bf 94 5b ba 3e
       0.80006874 0.9286835 -0.53176194 0.36397994
0000c0 1c 6b b3 be 66 4e 1f 3d b5 6e 05 3e 24 03 3c bf
       -0.35042655 0.038893126 0.13030513 -0.7344229
0000d0 30 01 0a 3d ba e5 a7 3e 54 2d 09 3f b6 4f 37 be
       0.03369254 0.32792455 0.5358479 -0.17901501
0000e0 df 7e 98 3e e1 83 ab bf ec a7 ec bd dc 6e 11 3f
       0.29784295 -1.3399621 -0.11555466 0.56809783
0000f0 74 69 ee be f9 42 81 3e 44 19 08 be ca fa c4 be
       -0.4656483 0.2524641 -0.13290888 -0.38472587
000100 0e b5 85 be ef ee ff be 96 22 2c 3d 49 ff 31 bf
       -0.26114696 -0.4998698 0.04202517 -0.6953016
000110 37 90 2c be 10 46 c9 3e 28 88 dd 3f b2 bf 4b 3e
       -0.16851889 0.39311266 1.7307177 0.19897345
000120 a5 81 53 bf 7e c9 fe 3e 05 f3 18 3f 2f 1d 6f 3f
       -0.82619697 0.497631 0.5974582 0.93403906
000130 86 e7 fe 3d e9 5d 16 3f e3 c3 c4 3d ec 8e 1c bc
       0.12446503 0.58737046 0.09607675 -0.00955556
000140 93 21 c7 be 45 79 3c be ef e6 ad be 47 5e 45 3e
       -0.38892803 -0.18405636 -0.3396525 0.19274245
000150 c5 ac 47 bf 45 85 c8 be 9a 56 e9 3e e7 8f 1c 3f
       -0.77998 -0.39164177 0.45573884 0.6115708
000160 c9 03 b4 be 5c 27 73 bd 07 74 e7 be 75 f2 9a 3d
       -0.35159138 -0.059363708 -0.4520571 0.07565776
000170 42 d3 67 3f f6 82 74 3e 72 bd d4 be fc 42 aa be
       0.9055673 0.23878083 -0.41550785 -0.3325423
000180 78 ff 45 bd b6 4e 28 3f a2 61 5f be d8 2d 18 3f
       -0.048339337 0.65745103 -0.21814588 0.5944495
000190 f4 1f ed 3d ef b5 b5 3d bf 5e 8b 3e 8b 6c 1f bd
       0.1157836 0.08872592 0.27220723 -0.038921874
0001a0 64 19 16 bf 41 4f 1e bf 28 29 3f 3e 9a de 5e 3e
       -0.58632493 -0.6183968 0.18668044 0.21764603
0001b0 5a 83 3b 3d 28 c4 03 bf b3 3c d9 be 45 0c a4 3e
       0.045779563 -0.51471186 -0.42429122 0.3204061
0001c0 34 8b 43 bd ff 25 4d bf 5f 8e 09 be aa cb 11 bd
       -0.047740176 -0.801361 -0.13433217 -0.03559462
0001d0 c7 a5 1c 3f 2f f4 11 3f 38 3b 19 bd cc e3 a6 be
       0.61190456 0.5701322 -0.03740999 -0.3259567

fc3.bias f4 [6]
000000 ae 93 20 bf ef f2 98 be 65 7e ff 3e 94 54 16 3f
       -0.6272534 -0.29872844 0.4990112 0.58722806
000010 df 10 6b 3d 9b 3c e2 be
       0.057389136 -0.44186863
